…
INFO 2026-01-12 01:13:07,061 logger.py:  66: TensorBoard SummaryWriter instantiated. Files will be stored in: /media/sde/zhengzhimin/MedSAM2/work_dirsRe/Quantum/D4_Quantum_GFTE_TempLoss/tensorboard
INFO 2026-01-12 01:13:07,387 sam2.py:  81: Training with points (sampled from masks) as inputs with p=0.5
INFO 2026-01-12 01:13:07,389 trainer.py:1052: ====================
INFO 2026-01-12 01:13:07,389 trainer.py:1053: Summary for model <class 'training.model.sam2.SAM2Train'>
INFO 2026-01-12 01:13:07,391 trainer.py:1054: Model is SAM2Train(
  (image_encoder): ImageEncoder(
    (trunk): Hiera(
      (patch_embed): PatchEmbed(
        (proj): Conv2d(3, 96, kernel_size=(7, 7), stride=(4, 4), padding=(3, 3))
      )
      (blocks): ModuleList(
        (0): MultiScaleBlock(
          (norm1): LayerNorm((96,), eps=1e-06, elementwise_affine=True)
          (attn): MultiScaleAttention(
            (qkv): Linear(in_features=96, out_features=288, bias=True)
            (proj): Linear(in_features=96, out_features=96, bias=True)
          )
          (drop_path): Identity()
          (norm2): LayerNorm((96,), eps=1e-06, elementwise_affine=True)
          (mlp): MLP(
            (layers): ModuleList(
              (0): Linear(in_features=96, out_features=384, bias=True)
              (1): Linear(in_features=384, out_features=96, bias=True)
            )
            (act): GELU(approximate='none')
          )
        )
        (1): MultiScaleBlock(
          (norm1): LayerNorm((96,), eps=1e-06, elementwise_affine=True)
          (pool): MaxPool2d(kernel_size=(2, 2), stride=(2, 2), padding=0, dilation=1, ceil_mode=False)
          (attn): MultiScaleAttention(
            (q_pool): MaxPool2d(kernel_size=(2, 2), stride=(2, 2), padding=0, dilation=1, ceil_mode=False)
            (qkv): Linear(in_features=96, out_features=576, bias=True)
            (proj): Linear(in_features=192, out_features=192, bias=True)
          )
          (drop_path): Identity()
          (norm2): LayerNorm((192,), eps=1e-06, elementwise_affine=True)
          (mlp): MLP(
            (layers): ModuleList(
              (0): Linear(in_features=192, out_features=768, bias=True)
              (1): Linear(in_features=768, out_features=192, bias=True)
            )
            (act): GELU(approximate='none')
          )
          (proj): Linear(in_features=96, out_features=192, bias=True)
        )
        (2): MultiScaleBlock(
          (norm1): LayerNorm((192,), eps=1e-06, elementwise_affine=True)
          (attn): MultiScaleAttention(
            (qkv): Linear(in_features=192, out_features=576, bias=True)
            (proj): Linear(in_features=192, out_features=192, bias=True)
          )
          (drop_path): Identity()
          (norm2): LayerNorm((192,), eps=1e-06, elementwise_affine=True)
          (mlp): MLP(
            (layers): ModuleList(
              (0): Linear(in_features=192, out_features=768, bias=True)
              (1): Linear(in_features=768, out_features=192, bias=True)
            )
            (act): GELU(approximate='none')
          )
        )
        (3): MultiScaleBlock(
          (norm1): LayerNorm((192,), eps=1e-06, elementwise_affine=True)
          (pool): MaxPool2d(kernel_size=(2, 2), stride=(2, 2), padding=0, dilation=1, ceil_mode=False)
          (attn): MultiScaleAttention(
            (q_pool): MaxPool2d(kernel_size=(2, 2), stride=(2, 2), padding=0, dilation=1, ceil_mode=False)
            (qkv): Linear(in_features=192, out_features=1152, bias=True)
            (proj): Linear(in_features=384, out_features=384, bias=True)
          )
          (drop_path): Identity()
          (norm2): LayerNorm((384,), eps=1e-06, elementwise_affine=True)
          (mlp): MLP(
            (layers): ModuleList(
              (0): Linear(in_features=384, out_features=1536, bias=True)
              (1): Linear(in_features=1536, out_features=384, bias=True)
            )
            (act): GELU(approximate='none')
          )
          (proj): Linear(in_features=192, out_features=384, bias=True)
        )
        (4-9): 6 x MultiScaleBlock(
          (norm1): LayerNorm((384,), eps=1e-06, elementwise_affine=True)
          (attn): MultiScaleAttention(
            (qkv): Linear(in_features=384, out_features=1152, bias=True)
            (proj): Linear(in_features=384, out_features=384, bias=True)
          )
          (drop_path): Identity()
          (norm2): LayerNorm((384,), eps=1e-06, elementwise_affine=True)
          (mlp): MLP(
            (layers): ModuleList(
              (0): Linear(in_features=384, out_features=1536, bias=True)
              (1): Linear(in_features=1536, out_features=384, bias=True)
            )
            (act): GELU(approximate='none')
          )
        )
        (10): MultiScaleBlock(
          (norm1): LayerNorm((384,), eps=1e-06, elementwise_affine=True)
          (pool): MaxPool2d(kernel_size=(2, 2), stride=(2, 2), padding=0, dilation=1, ceil_mode=False)
          (attn): MultiScaleAttention(
            (q_pool): MaxPool2d(kernel_size=(2, 2), stride=(2, 2), padding=0, dilation=1, ceil_mode=False)
            (qkv): Linear(in_features=384, out_features=2304, bias=True)
            (proj): Linear(in_features=768, out_features=768, bias=True)
          )
          (drop_path): Identity()
          (norm2): LayerNorm((768,), eps=1e-06, elementwise_affine=True)
          (mlp): MLP(
            (layers): ModuleList(
              (0): Linear(in_features=768, out_features=3072, bias=True)
              (1): Linear(in_features=3072, out_features=768, bias=True)
            )
            (act): GELU(approximate='none')
          )
          (proj): Linear(in_features=384, out_features=768, bias=True)
        )
        (11): MultiScaleBlock(
          (norm1): LayerNorm((768,), eps=1e-06, elementwise_affine=True)
          (attn): MultiScaleAttention(
            (qkv): Linear(in_features=768, out_features=2304, bias=True)
            (proj): Linear(in_features=768, out_features=768, bias=True)
          )
          (drop_path): Identity()
          (norm2): LayerNorm((768,), eps=1e-06, elementwise_affine=True)
          (mlp): MLP(
            (layers): ModuleList(
              (0): Linear(in_features=768, out_features=3072, bias=True)
              (1): Linear(in_features=3072, out_features=768, bias=True)
            )
            (act): GELU(approximate='none')
          )
        )
      )
    )
    (neck): FpnNeck(
      (position_encoding): PositionEmbeddingSine()
      (convs): ModuleList(
        (0): Sequential(
          (conv): Conv2d(768, 256, kernel_size=(1, 1), stride=(1, 1))
        )
        (1): Sequential(
          (conv): Conv2d(384, 256, kernel_size=(1, 1), stride=(1, 1))
        )
        (2): Sequential(
          (conv): Conv2d(192, 256, kernel_size=(1, 1), stride=(1, 1))
        )
        (3): Sequential(
          (conv): Conv2d(96, 256, kernel_size=(1, 1), stride=(1, 1))
        )
      )
    )
  )
  (temporal_fusion): ModuleList(
    (0): GFTE(
      (temporal_attention): MultiheadAttention(
        (out_proj): NonDynamicallyQuantizableLinear(in_features=256, out_features=256, bias=True)
      )
      (temporal_convs): ModuleList(
        (0): Conv3d(256, 256, kernel_size=(3, 1, 1), stride=(1, 1, 1), padding=(1, 0, 0), groups=256)
        (1): Conv3d(256, 256, kernel_size=(5, 1, 1), stride=(1, 1, 1), padding=(2, 0, 0), groups=256)
        (2): Conv3d(256, 256, kernel_size=(7, 1, 1), stride=(1, 1, 1), padding=(3, 0, 0), groups=256)
      )
      (refinement): Sequential(
        (0): Conv3d(256, 512, kernel_size=(1, 1, 1), stride=(1, 1, 1))
        (1): GELU(approximate='none')
        (2): Conv3d(512, 256, kernel_size=(1, 1, 1), stride=(1, 1, 1))
      )
      (spectral_gate): Sequential(
        (0): AdaptiveAvgPool3d(output_size=1)
        (1): Conv3d(256, 16, kernel_size=(1, 1, 1), stride=(1, 1, 1))
        (2): ReLU()
        (3): Conv3d(16, 256, kernel_size=(1, 1, 1), stride=(1, 1, 1))
        (4): Sigmoid()
      )
      (norm1): BatchNorm3d(256, eps=1e-05, momentum=0.1, affine=True, track_running_stats=True)
      (norm2): BatchNorm3d(256, eps=1e-05, momentum=0.1, affine=True, track_running_stats=True)
    )
  )
  (mask_downsample): Conv2d(1, 1, kernel_size=(4, 4), stride=(4, 4))
  (memory_attention): MemoryAttention(
    (layers): ModuleList(
      (0-3): 4 x MemoryAttentionLayer(
        (self_attn): RoPEAttention(
          (q_proj): Linear(in_features=256, out_features=256, bias=True)
          (k_proj): Linear(in_features=256, out_features=256, bias=True)
          (v_proj): Linear(in_features=256, out_features=256, bias=True)
          (out_proj): Linear(in_features=256, out_features=256, bias=True)
        )
        (cross_attn_image): RoPEAttention(
          (q_proj): Linear(in_features=256, out_features=256, bias=True)
          (k_proj): Linear(in_features=64, out_features=256, bias=True)
          (v_proj): Linear(in_features=64, out_features=256, bias=True)
          (out_proj): Linear(in_features=256, out_features=256, bias=True)
        )
        (linear1): Linear(in_features=256, out_features=2048, bias=True)
        (dropout): Dropout(p=0.1, inplace=False)
        (linear2): Linear(in_features=2048, out_features=256, bias=True)
        (norm1): LayerNorm((256,), eps=1e-05, elementwise_affine=True)
        (norm2): LayerNorm((256,), eps=1e-05, elementwise_affine=True)
        (norm3): LayerNorm((256,), eps=1e-05, elementwise_affine=True)
        (dropout1): Dropout(p=0.1, inplace=False)
        (dropout2): Dropout(p=0.1, inplace=False)
        (dropout3): Dropout(p=0.1, inplace=False)
      )
    )
    (norm): LayerNorm((256,), eps=1e-05, elementwise_affine=True)
  )
  (memory_encoder): MemoryEncoder(
    (mask_downsampler): MaskDownSampler(
      (encoder): Sequential(
        (0): Conv2d(1, 4, kernel_size=(3, 3), stride=(2, 2), padding=(1, 1))
        (1): LayerNorm2d()
        (2): GELU(approximate='none')
        (3): Conv2d(4, 16, kernel_size=(3, 3), stride=(2, 2), padding=(1, 1))
        (4): LayerNorm2d()
        (5): GELU(approximate='none')
        (6): Conv2d(16, 64, kernel_size=(3, 3), stride=(2, 2), padding=(1, 1))
        (7): LayerNorm2d()
        (8): GELU(approximate='none')
        (9): Conv2d(64, 256, kernel_size=(3, 3), stride=(2, 2), padding=(1, 1))
        (10): LayerNorm2d()
        (11): GELU(approximate='none')
        (12): Conv2d(256, 256, kernel_size=(1, 1), stride=(1, 1))
      )
    )
    (pix_feat_proj): Conv2d(256, 256, kernel_size=(1, 1), stride=(1, 1))
    (fuser): Fuser(
      (proj): Identity()
      (layers): ModuleList(
        (0-1): 2 x CXBlock(
          (dwconv): Conv2d(256, 256, kernel_size=(7, 7), stride=(1, 1), padding=(3, 3), groups=256)
          (norm): LayerNorm2d()
          (pwconv1): Linear(in_features=256, out_features=1024, bias=True)
          (act): GELU(approximate='none')
          (pwconv2): Linear(in_features=1024, out_features=256, bias=True)
          (drop_path): Identity()
        )
      )
    )
    (position_encoding): PositionEmbeddingSine()
    (out_proj): Conv2d(256, 64, kernel_size=(1, 1), stride=(1, 1))
  )
  (sam_prompt_encoder): PromptEncoder(
    (pe_layer): PositionEmbeddingRandom()
    (point_embeddings): ModuleList(
      (0-3): 4 x Embedding(1, 256)
    )
    (not_a_point_embed): Embedding(1, 256)
    (mask_downscaling): Sequential(
      (0): Conv2d(1, 4, kernel_size=(2, 2), stride=(2, 2))
      (1): LayerNorm2d()
      (2): GELU(approximate='none')
      (3): Conv2d(4, 16, kernel_size=(2, 2), stride=(2, 2))
      (4): LayerNorm2d()
      (5): GELU(approximate='none')
      (6): Conv2d(16, 256, kernel_size=(1, 1), stride=(1, 1))
    )
    (no_mask_embed): Embedding(1, 256)
  )
  (sam_mask_decoder): MaskDecoder(
    (transformer): TwoWayTransformer(
      (layers): ModuleList(
        (0-1): 2 x TwoWayAttentionBlock(
          (self_attn): Attention(
            (q_proj): Linear(in_features=256, out_features=256, bias=True)
            (k_proj): Linear(in_features=256, out_features=256, bias=True)
            (v_proj): Linear(in_features=256, out_features=256, bias=True)
            (out_proj): Linear(in_features=256, out_features=256, bias=True)
          )
          (norm1): LayerNorm((256,), eps=1e-05, elementwise_affine=True)
          (cross_attn_token_to_image): Attention(
            (q_proj): Linear(in_features=256, out_features=128, bias=True)
            (k_proj): Linear(in_features=256, out_features=128, bias=True)
            (v_proj): Linear(in_features=256, out_features=128, bias=True)
            (out_proj): Linear(in_features=128, out_features=256, bias=True)
          )
          (norm2): LayerNorm((256,), eps=1e-05, elementwise_affine=True)
          (mlp): MLP(
            (layers): ModuleList(
              (0): Linear(in_features=256, out_features=2048, bias=True)
              (1): Linear(in_features=2048, out_features=256, bias=True)
            )
            (act): ReLU()
          )
          (norm3): LayerNorm((256,), eps=1e-05, elementwise_affine=True)
          (norm4): LayerNorm((256,), eps=1e-05, elementwise_affine=True)
          (cross_attn_image_to_token): Attention(
            (q_proj): Linear(in_features=256, out_features=128, bias=True)
            (k_proj): Linear(in_features=256, out_features=128, bias=True)
            (v_proj): Linear(in_features=256, out_features=128, bias=True)
            (out_proj): Linear(in_features=128, out_features=256, bias=True)
          )
        )
      )
      (final_attn_token_to_image): Attention(
        (q_proj): Linear(in_features=256, out_features=128, bias=True)
        (k_proj): Linear(in_features=256, out_features=128, bias=True)
        (v_proj): Linear(in_features=256, out_features=128, bias=True)
        (out_proj): Linear(in_features=128, out_features=256, bias=True)
      )
      (norm_final_attn): LayerNorm((256,), eps=1e-05, elementwise_affine=True)
    )
    (iou_token): Embedding(1, 256)
    (mask_tokens): Embedding(4, 256)
    (obj_score_token): Embedding(1, 256)
    (output_upscaling): Sequential(
      (0): ConvTranspose2d(256, 64, kernel_size=(2, 2), stride=(2, 2))
      (1): LayerNorm2d()
      (2): GELU(approximate='none')
      (3): ConvTranspose2d(64, 32, kernel_size=(2, 2), stride=(2, 2))
      (4): GELU(approximate='none')
    )
    (output_hypernetworks_mlps): ModuleList(
      (0-3): 4 x MLP(
        (layers): ModuleList(
          (0-1): 2 x Linear(in_features=256, out_features=256, bias=True)
          (2): Linear(in_features=256, out_features=32, bias=True)
        )
        (act): ReLU()
      )
    )
    (iou_prediction_head): MLP(
      (layers): ModuleList(
        (0-1): 2 x Linear(in_features=256, out_features=256, bias=True)
        (2): Linear(in_features=256, out_features=4, bias=True)
      )
      (act): ReLU()
    )
    (pred_obj_score_head): MLP(
      (layers): ModuleList(
        (0-1): 2 x Linear(in_features=256, out_features=256, bias=True)
        (2): Linear(in_features=256, out_features=1, bias=True)
      )
      (act): ReLU()
    )
  )
  (obj_ptr_proj): MLP(
    (layers): ModuleList(
      (0-2): 3 x Linear(in_features=256, out_features=256, bias=True)
    )
    (act): ReLU()
  )
  (obj_ptr_tpos_proj): Linear(in_features=256, out_features=64, bias=True)
)
INFO 2026-01-12 01:13:07,391 trainer.py:1055: 	Total parameters 39.5 M
INFO 2026-01-12 01:13:07,391 trainer.py:1056: 	Trainable parameters 39.5 M
INFO 2026-01-12 01:13:07,392 trainer.py:1059: 	Non-Trainable parameters 0  
INFO 2026-01-12 01:13:07,392 trainer.py:1062: ====================
INFO 2026-01-12 01:13:07,394 trainer.py:1016: Finished setting up components: Model, loss, optim, meters etc.
…
